noise-analysis/mlp_model/models/all_real_noise.pt (torch, 7831 bytes, 6 tensors)

fc1.weight f4 [32, 10]
0.075958304 0.13704714 -0.13692273 0.29955357 -0.30554646 -0.19179331 0.36355326 0.03545561
-0.17986476 0.3346795 0.23218876 -0.15672082 -0.41718522 -0.520246 -0.3299874 -0.22102249
-0.07596048 0.07253706 -0.0204801 0.23385707 -0.26743782 0.20455231 0.4477406 0.43866736
-0.1900407 0.075381525 0.7044317 0.41182423 0.5593379 0.05774195 -0.09203678 -0.1459841
0.28322765 -0.07064039 0.22180545 0.13342683 0.51450974 0.15675399 -0.4932308 -0.30339682
-0.0341225 0.08656009 0.30223858 -0.28932345 -0.20204091 0.13176836 -0.66230273 -0.31561786
-0.1526614 0.42191195 0.050226934 0.014792473 -0.57821196 0.2508326 0.03913762 -0.02731694
-0.71647245 -0.5091022 -0.15602428 -0.064854294 -0.15724236 -0.08002297 0.9534549 -0.23673035
0.121802695 -0.020677079 -0.062213864 0.036211904 1.0673451 0.0823209 -0.033447184 -0.061657645
0.306555 -0.023763163 0.11540761 -0.25712222 -0.106569625 -0.17039467 -0.01860689 -0.14058132
-0.30580717 -0.041583046 0.19919884 -0.023023317 0.2535898 -0.11826988 -0.106745936 0.15087464
-0.28465787 -0.26762268 0.08187131 0.011517968 0.0746918 0.24006559 -0.060887747 -0.21855043
-0.7262864 0.4174656 0.19320442 0.28919432 -0.07573252 -0.13858853 0.13654025 -0.5562928
0.114578456 -0.01986605 -0.023086052 0.07979311 -1.1019114 0.19703403 -0.03187132 0.12389449
-0.010442465 0.063840486 0.21666935 -0.18084964 1.1198756 0.08371368 0.2859246 -0.3933144
0.109326206 -0.10498596 -0.23230946 -0.7812669 -0.48418936 0.094976105 -0.0558978 -0.004304302
1.6533914 0.16079435 0.14628968 -0.059589215 0.199201 -0.16691606 0.28908905 -0.21422035
0.2977922 -0.42836046 0.24624711 0.29206097 -0.009958672 -0.08753037 -0.071537025 -0.10735155
0.2497658 -0.06446221 -0.23650289 0.32912147 -1.077983 0.02430403 0.11748764 0.101815276
-0.26981008 0.005367483 -0.33007392 -0.26117396 0.7894494 0.1172209 -0.25933152 -0.10211316
-0.04996371 -0.15293671 0.65868324 -0.13451423 -0.25961035 -0.14556855 0.2905428 -0.30030733
0.23300718 -0.093270086 0.26693156 -0.22450747 0.17380014 -0.03657712 -0.053286094 -0.29786986
0.02217407 0.08395 0.08623546 -0.105443895 -0.04646037 -0.040918753 -0.58622766 -0.36869687
0.037527163 0.06477726 0.44108227 0.14384045 -0.79910463 0.043485306 0.14507383 -0.15634666
0.25845033 -0.1799606 -0.07626116 -0.05790454 0.2213587 0.15004474 0.2792019 -0.31273863
-0.1539951 0.018590337 0.083715744 -0.57114637 0.02173401 0.05590008 -0.8375388 0.7796252
-0.20554894 0.0829791 0.2035255 -0.21735764 -0.009952456 0.289732 0.3284421 -0.16552746
-0.12045371 -0.11684557 -0.61023587 0.121115424 -0.12074622 0.16813548 0.2555811 -0.104681104
0.06811821 -0.15013978 -0.062548466 -0.29075947 -0.07732313 -0.29852626 0.2261452 -0.14918463
-0.55478173 -0.06782164 0.32397503 -0.04847666 0.2553084 0.27787274 0.51439494 0.17796187
-0.12818731 0.23148145 0.12609738 -0.118231915 0.095210485 -0.024411382 0.20003799 0.81234175
0.10571879 0.19328852 -0.04698632 -0.3085132 -0.36063436 -0.09646146 0.123381324 0.083943434
00000000: 0790 9b3d 1656 0c3e 7935 0cbe 165f 993e
00000010: 9670 9cbe 7765 44be a723 ba3e e739 113d
00000020: 782e 38be 1d5b ab3e e4c2 6d3e 6c7b 20be
00000030: 4d99 d5be d82e 05bf 1cf4 a8be b853 62be
00000040: 2b91 9bbd 4f8e 943d e2c5 a7bc 3a78 6f3e
00000050: 9ced 88be 2976 513e 423e e53e 0299 e03e
00000060: 079a 42be a161 9a3d a355 343f a0da d23e
00000070: c530 0f3f d382 6c3d c87d bcbd db7c 15be
00000080: 3703 913e e9ab 90bd f820 633e 0ba1 083e
00000090: e9b6 033f 1e84 203e bf88 fcbe d456 9bbe
000000a0: 09c4 0bbd 6b46 b13d 04bf 9a3e 3422 94be
000000b0: d0e3 4ebe 49ee 063e ac8c 29bf aa98 a1be
000000c0: 4553 1cbe d804 d83e c2ba 4d3d 215c 723c
000000d0: b305 14bf 216d 803e c54e 203d c6c7 dfbc
000000e0: bd6a 37bf 8654 02bf d4c4 1fbe 54d2 84bd
000000f0: 2404 21be 15e3 a3bd 9f15 743f 7169 72be
00000100: b173 f93d fa62 a9bc f7d3 7ebd ef52 143d
00000110: c49e 883f dc97 a83d eaff 08bd ba8c 7cbd
00000120: c7f4 9c3e f7aa c2bc d35a ec3d 86a5 83be
00000130: 2d41 dabd f17b 2ebe 7a6d 98bc 8df4 0fbe
00000140: c292 9cbe fc52 2abd c8fa 4b3e 659b bcbc
00000150: 86d6 813e 7b37 f2bd 9d9d dabd e27e 1a3e
00000160: adbe 91be d705 89be 25ac a73d dcb5 3c3c
00000170: 04f8 983d c1d3 753e 6e65 79bd afcb 5fbe
00000180: e8ed 39bf 0dbe d53e 61d7 453e 4711 943e
00000190: a719 9bbd 27ea 0dbe 35d1 0b3e 3469 0ebf
000001a0: 1ca8 ea3d 20be a2bc f61e bdbc 926a a33d
000001b0: 6f0b 8dbf 4ac3 493e 808b 02bd 65bc fd3d
000001c0: df16 2bbc cdbe 823d 92de 5d3e a630 39be
000001d0: 1558 8f3f 1472 ab3d b664 923e 8160 c9be
000001e0: 6be6 df3d e102 d7bd 88e2 6dbe 1c01 48bf
000001f0: abe7 f7be d582 c23d 17f5 64bd 1a0b 8dbb
00000200: 54a2 d33f 46a7 243e f6cc 153e d213 74bd
00000210: 59fb 4b3e 0bec 2abe 7b03 943e 945c 5bbe
00000220: 3878 983e 1052 dbbe 3428 7c3e 0489 953e
00000230: b329 23bc 1f43 b3bd 0182 92bd 21db dbbd
00000240: 9bc2 7f3e c304 84bd d02d 72be 9c82 a83e
00000250: 59fb 89bf 3f19 c73c 5c9d f03d 8784 d03d
00000260: 8c24 8abe b6e1 af3b 73ff a8be 98b8 85be
00000270: 5b19 4a3f 8311 f03d 1ac7 84be b420 d1bd
00000280: bfa6 4cbd 719b 1cbe 779f 283f 19be 09be
00000290: a6eb 84be ec0f 15be 07c2 943e e2c1 99be
000002a0: 6f99 6e3e 6304 bfbd 41ab 883e 49e5 65be
000002b0: aaf8 313e e4d1 15bd 8542 5abd 6682 98be
000002c0: 65a6 b53c faed ab3d 389c b03d f8f2 d7bd
000002d0: 3b4d 3ebd 6c9a 27bd 0413 16bf d6c5 bcbe
000002e0: 15b6 193d f1a9 843d 89d5 e13e e94a 133e
000002f0: 1f92 4cbf a61d 323d 3c8e 143e 5719 20be
00000300: 9a53 843e 9747 38be d02e 9cbd 502d 6dbd
00000310: dbab 623e 54a5 193e 8df3 8e3e 471f a0be
00000320: e4b0 1dbe c34a 983c 2973 ab3d a636 12bf
00000330: 860b b23c 7bf7 643d f168 56bf 8495 473f
00000340: 6c7b 52be f2f0 a93d fd68 503e 0093 5ebe
00000350: a00f 23bc c157 943e 9029 a83e 0880 29be
00000360: 6fb0 f6bd bb4c efbd 6b38 1cbf 5d0b f83d
00000370: cb49 f7bd b52b 2c3e 87db 823e 0c63 d6bd
00000380: 8f81 8b3d 3ebe 19be 6919 80bd 6dde 94be
00000390: 975b 9ebd 6fd8 98be 9b92 673e dbc3 18be
000003a0: 2d06 0ebf 12e6 8abd 0ee0 a53e 768f 46bd
000003b0: c8b7 823e 5645 8e3e 63af 033f a33b 363e
000003c0: 8943 03be 7909 6d3e ac1f 013e 9323 f2bd
000003d0: b7fd c23d 61fa c7bc c2d6 4c3e a1f5 4f3f
000003e0: 1883 d83d 6ded 453e ba74 40bd 71f5 9dbe
000003f0: 11a5 b8be 968d c5bd 59af fc3d 89ea ab3d

fc1.bias f4 [32]
0.062439863 0.14474806 -0.12348712 0.14089748 0.12678766 0.14905545 -0.05236177 -0.3048988
-0.1763951 0.087308094 -0.1313654 -0.08244893 -0.11210867 0.071998455 -0.14155146 -0.19590063
0.14407049 -0.14190084 0.1995196 -0.2654345 0.06938068 0.115768716 -0.2945154 -0.04250328
0.18030688 -0.068292916 -0.034178846 0.08523953 -0.094022416 -0.27262187 0.2612076 -0.20569985
00000000: f1c0 7f3d d638 143e d1e6 fcbd 6e47 103e
00000010: a0d4 013e fea1 183e 4c79 56bd b21b 9cbe
00000020: eba0 34be 96ce b23d a784 06be fcda a8bd
00000030: 3b99 e5bd ed73 933d def2 10be 2d9a 48be
00000040: 3787 133e 744e 11be de4e 4c3e 08e7 87be
00000050: 7517 8e3d 2618 ed3d b9ca 96be eb17 2ebd
00000060: 5ea2 383e 28dd 8bbd 1eff 0bbd 1092 ae3d
00000070: d38e c0bd 1895 8bbe 01bd 853e fba2 52be

fc2.weight f4 [32, 32]
-0.16496958 0.15843838 -0.030702949 0.016747972 0.1624439 0.16276082 0.06759372 -0.07973602
0.15537702 0.16262887 -0.1856732 0.009561604 -0.24934648 0.084078886 0.30765733 -0.09036132
0.17811134 -0.012568219 -0.11867518 0.008694516 0.14435154 -0.07889886 -0.140429 -0.018023107
0.116146974 0.045860853 0.23983686 0.16863745 -0.054567337 0.1027219 -0.11339584 0.15026434
-0.10782702 -0.3469922 0.09588338 -0.14600518 -0.09165214 0.010144586 0.24915087 -0.03415155
0.16070694 0.13270555 -0.12886906 0.124794744 0.078438364 0.19493409 -0.011977592 -0.14346153
-0.10985829 -0.17516777 -0.46901363 0.07474151 -0.07155834 -0.08150406 0.12992752 0.3589777
-0.006029596 -0.010502849 0.5117921 0.1574421 0.05492714 0.013250084 -0.059436154 -0.02559243
-0.086878456 -0.11730297 -0.14768808 0.02874495 -0.08715151 -0.092194274 0.04252067 -0.1356726
-0.1758291 -0.16169061 -0.048797514 0.10520251 -0.00438772 -0.10532325 -0.053024843 -0.11528419
0.08501696 0.11376549 -0.1584201 -0.035615392 -0.077249505 -0.14698225 -0.020539002 0.15060961
0.029951256 -0.082226984 -0.10958401 0.15610309 0.058828454 -0.06871472 -0.105856486 -0.06472917
0.14155336 0.04927177 -0.24467643 0.16003463 -0.035494775 0.22575688 -0.012841875 0.115063064
0.013198539 0.17015791 0.18976998 -0.15804984 0.188861 -0.22308879 0.3896838 0.11228305
-0.3200009 0.06274554 0.28852102 -0.13600847 -0.21118917 0.24139017 0.12757072 -0.17910257
-0.3655589 -0.009915233 0.23998737 0.23015948 -0.22452894 -0.071707256 -0.11305562 0.15231389
-0.022825094 0.030474542 0.16918306 -0.18367861 -0.25048795 0.51849645 -0.18314408 0.11231345
0.10105634 0.3260195 0.02712304 -0.21311729 -0.16385643 -0.366832 0.09738958 0.007580322
-0.40814486 0.11392801 -0.10110915 -0.10887471 0.76854694 0.28140643 0.017527504 -0.018422125
0.181133 -0.010443329 0.05092375 -0.12769866 -0.045115955 0.14701745 -0.2462997 0.005280136
-0.015109203 -0.14621946 0.10493574 -0.07850592 -0.12615801 -0.06352763 -0.05838607 0.13332449
-0.011807418 -0.117294595 -0.11448338 -0.17207472 0.021064784 -0.115367025 -0.16898292 0.0073183365
-0.09079723 -0.042944033 0.111167915 -0.15850218 0.012620473 -0.055470794 0.10972881 -0.018810855
-0.060868856 -0.008989607 -0.11241607 0.10612037 0.098625734 0.013180562 0.08049896 0.0454311
-0.07839689 0.047692087 -0.42148876 0.15381584 -0.076823466 -0.15822196 -0.2514049 0.006056186
0.1643599 0.013903926 0.031202666 -0.2802482 -0.16531521 0.11020554 0.18132459 -0.24506731
-0.09978659 0.1402832 0.03373126 0.13387541 -0.1114409 0.2340584 0.074956715 -0.06362406
0.4073979 -0.1027229 -0.31180117 -0.12221473 -0.13447791 0.13623501 -0.23325998 -0.08862449
-0.053758956 -0.14171663 -0.09288808 0.0016519205 -0.13735339 -0.13012695 0.06326494 0.13358314
-0.17664422 -0.12228961 -0.09052007 -0.10255389 0.15017255 -0.18896738 0.15816306 0.101369366
0.11539646 -0.01144072 0.07838717 -0.120335385 -0.05091156 -0.1592343 0.045909867 0.093564935
-0.13030839 0.14455298 0.121035635 0.030678196 -0.01922146 0.097218536 0.04538292 0.04748892
00000000: c9ed 28be ac3d 223e c084 fbbc 0b33 893c
00000010: b257 263e c6aa 263e 946e 8a3d a34c a3bd
00000020: 271b 1f3e 2f88 263e 1e21 3ebe 46a8 1c3c
00000030: af54 7fbe 8d31 ac3d 4385 9d3e 5b0f b9bd
00000040: d262 363e eeea 4dbc f90b f3bd 7173 0e3c
00000050: e4d0 133e ba95 a1bd 9fcc 0fbe 32a5 93bc
00000060: 77de ed3d 97d8 3b3d cb97 753e 4caf 2c3e
00000070: 0082 5fbd dc5f d23d 143c e8bd e5de 193e
00000080: 6ad4 dcbd f6a8 b1be 815e c43d 6282 15be
00000090: 1eb4 bbbd 7a35 263c 6821 7f3e 7fe2 0bbd
000000a0: 5c90 243e f7e3 073e 40f6 03be 6394 ff3d
000000b0: 4ba4 a03d cd9c 473e a93d 44bc 94e7 12be
000000c0: 62fd e0bd 2e5f 33be 8e22 f0be 1412 993d
000000d0: 2e8d 92bd 9aeb a6bd b80b 053e edcb b73e
000000e0: eb93 c5bb 2414 2cbc cf04 033f 8038 213e
000000f0: 48fb 603d e116 593c 5373 73bd 37a7 d1bc
00000100: 55ed b1bd 8a3c f0bd 8b3b 17be 887a eb3c
00000110: 7e7c b2bd 5ad0 bcbd 272a 2e3d c2ed 0abe
00000120: 8b0c 34be 3992 25be e7df 47bd 6a74 d73d
00000130: ddc6 8fbb b7b3 d7bd 9430 59bd 1e1a ecbd
00000140: 5f1d ae3d e2fd e83d e138 22be 72e1 11bd
00000150: fd34 9ebd 8482 16be 6941 a8bc 6839 1a3e
00000160: 565c f53c 9f66 a8bd 956d e0bd 7dd9 1f3e
00000170: 1bf6 703d 4eba 8cbd 49cb d8bd ba90 84bd
00000180: 5df3 103e 32d1 493d 758c 7abe 1ee0 233e
00000190: f862 11bd d02c 673e ba66 52bc 2fa6 eb3d
000001a0: af3e 583c e03d 2e3e 1053 423e d1d7 21be
000001b0: c764 413e 6371 64be a384 c73e a8f4 e53d
000001c0: 28d7 a3be bc80 803d 07b9 933e ce45 0bbe
000001d0: f941 58be fc2e 773e e6a1 023e aa66 37be
000001e0: 892a bbbe 8073 22bc 40bf 753e edae 6b3e
000001f0: eaea 65be 41db 92bd b489 e7bd 2cf8 1b3e
00000200: b1fb babc bfa5 f93c 533e 2d3e 3f16 3cbe
00000210: f53f 80be 2fbc 043f 1f8a 3bbe 9804 e63d
00000220: a0f6 ce3d 07ec a63e 2331 de3c 6b3b 5abe
00000230: fbc9 27be 67d1 bbbe 3074 c73d 5a64 f83b
00000240: 5df8 d0be 1753 e93d 5012 cfbd b4f9 debd
00000250: 7ebf 443f 8114 903e d795 8f3c ffe9 96bc
00000260: ee7a 393e 7f1a 2bbc 6c95 503d 70c3 02be
00000270: 82cb 38bd be8b 163e fd35 7cbe fe04 ad3b
00000280: 978c 77bc 8eba 15be 8de8 d63d b6c7 a0bd
00000290: 912f 01be c61a 82bd 3b26 6fbd 3786 083e
000002a0: e773 41bc 2638 f0bd 4376 eabd 5b34 30be
000002b0: 0e90 ac3c 8c45 ecbd dc09 2dbe a8ce ef3b
000002c0: e6f3 b9bd 15e6 2fbd 01ac e33d 654e 22be
000002d0: 1ac6 4e3c 5835 63bd 80b9 e03d 3919 9abc
000002e0: 9f51 79bd 2549 13bc 663a e6bd a355 d93d
000002f0: 4afc c93d 49f3 573c a4dc a43d f615 3a3d
00000300: 8c8e a0bd c758 433d 60cd d7be e681 1d3e
00000310: 9f55 9dbd f004 22be 25b8 80be f872 c63b
00000320: f64d 283e 4bcd 633c bc9c ff3c b17c 8fbe
00000330: 6448 29be 71b3 e13d 27ad 393e edf2 7abe
00000340: e95c ccbd 66a6 0f3e ca29 0a3d a316 093e
00000350: 203b e4bd 01ad 6f3e e882 993d 554d 82bd
00000360: 7596 d03e 6260 d2bd 67a4 9fbe b74b fabd
00000370: 94b4 09be 3181 0b3e b4db 6ebe c280 b5bd
00000380: 5a32 5cbd 2a1e 11be 1b3c bebd 4185 d83a
00000390: 5ea6 0cbe 0040 05be 0d91 813d 05ca 083e
000003a0: 39e2 34be fa72 fabd 9662 b9bd c607 d2bd
000003b0: d5c6 193e aa80 41be 7ff5 213e be9a cf3d
000003c0: fb54 ec3d dc71 3bbc 7489 a03d 6672 f6bd
000003d0: a488 50bd 510e 23be fc0b 3c3d f99e bf3d
000003e0: 906f 05be b205 143e 88e1 f73d d750 fb3c
000003f0: 5376 9dbc 831a c73d 71e3 393d be83 423d

fc2.bias f4 [32]
0.18860215 -0.10571116 0.030313352 -0.06331801 0.11485754 -0.16842324 -0.0074217813 0.021434493
0.051726375 -0.083739705 -0.2221726 0.12869568 -0.099729985 0.11734351 0.019489711 0.055706862
0.074028514 0.14937477 0.049120832 0.083878376 -0.022175182 -0.026823493 -0.13155194 -0.22661427
-0.116096966 -0.25591204 0.14248203 0.15321194 -0.00262158 0.25065947 0.20674095 0.064312644
00000000: ec20 413e 187f d8bd b553 f83c dfac 81bd
00000010: 6e3a eb3d 2477 2cbe 6a32 f3bb 6497 af3c
00000020: 09df 533d b97f abbd 3781 63be cdc8 033e
00000030: 3c3f ccbd cb51 f03d e3a8 9f3c e12c 643d
00000040: 439c 973d b3f5 183e ed32 493d 6dc8 ab3d
00000050: baa8 b5bc f1bc dbbc 8db5 06be 920d 68be
00000060: 3fc4 edbd e706 83be cfe6 113e 97e3 1c3e
00000070: d0ce 2bbb 7056 803e e6b3 533e 59b6 833d

out.weight f4 [3, 32]
0.3230952 -0.7273076 -0.16751844 0.7122129 -0.99106175 -0.13504249 -0.18731852 0.056832805
1.1977888 -0.034259986 0.13247755 -0.39699242 -0.8351049 0.051650245 0.058032475 -0.5006646
0.08881488 -0.016592562 0.44589227 0.16347422 -0.09184379 0.17561969 0.3299375 0.592311
0.9313346 0.91577965 0.15649945 1.3889637 -0.1593852 0.5753908 -0.7921551 0.0036032945
-0.24241756 -0.51522714 -0.049402554 0.45032534 -0.092340074 0.028093824 -0.81254864 0.09958509
-0.25304803 0.34375095 0.11241368 -0.16512465 0.08550753 -0.5249514 -0.04649883 0.520217
0.43612075 0.47314352 0.42793584 -0.085899465 0.42942354 0.6250388 -0.068542644 -0.8043082
0.1640744 0.5383738 0.3361457 0.31839505 0.39727375 -0.06713574 0.606041 0.78753084
-0.0037676345 0.031235542 0.01938624 0.023537805 0.020401265 0.15741949 0.004850908 -0.026480757
-0.017637793 0.05135306 -0.12983078 0.03868957 0.026792701 0.0029681548 0.09164876 -0.027029378
-0.05178475 0.15432182 0.03400992 -0.039907526 -0.061586786 -0.08704399 -0.03882035 -0.04799852
0.018312618 -0.021672105 0.03663105 -0.006293829 -0.07860983 -0.08163442 0.012840447 0.0042098635
00000000: bc6c a53e d530 3abf f489 2bbe 9653 363f
00000010: 39b6 7dbf 9448 0abe 6dd0 3fbe 84c9 683d
00000020: 2551 993f 3354 0cbd 32a8 073e 9742 cbbe
00000030: 6fc9 55bf 358f 533d 76b3 6d3d 8e2b 00bf
00000040: 93e4 b53d 20ed 87bc fe4b e43e c965 273e
00000050: 9918 bcbd a6d5 333e 91ed a83e b2a1 173f
00000060: f26b 6e3f 8970 6a3f 6441 203e 90c9 b13f
00000070: e035 23be d04c 133f adca 4abf 4025 6c3b
00000080: 4f3c 78be ede5 03bf 555a 4abd 0b91 e63e
00000090: cb1c bdbd 0525 e63c 3003 50bf 45f3 cb3d
000000a0: 838f 81be 2000 b03e 2539 e63d 7016 29be
000000b0: 921e af3d 3763 06bf 8f75 3ebd f12c 053f
000000c0: 384b df3e de3f f23e 681a db3e 0fec afbd
000000d0: 67dd db3e 8b02 203f 1660 8cbd 24e7 4dbf
000000e0: 1f03 283e ded2 093f 4a1b ac3e ad04 a33e
000000f0: 7767 cb3e 767e 89bd 8125 1b3f 9f9b 493f
00000100: 6bea 76bb aee1 ff3c e4cf 9e3c 5bd2 c03c
00000110: 8e20 a73c 9332 213e 5ef4 9e3b 2cee d8bc
00000120: 227d 90bc 9657 523d 5cf2 04be f478 1e3d
00000130: 5e7c db3c 6085 423b 58b2 bb3d b76c ddbc
00000140: 3f1c 54bd 8a06 1e3e fc4d 0b3d 1376 23bd
00000150: 6d42 7cbd 1f44 b2bd 1602 1fbd 199a 44bd
00000160: 5804 963c b389 b1bc 710a 163d 773c cebb
00000170: 31fe a0bd f22f a7bd bd60 523c e5f2 893b

out.bias f4 [3]
-0.23291616 -0.42871433 -0.013569229
00000000: 9381 6ebe 7280 dbbe 7951 5ebc
