noise-analysis/mlp_model/models/couple_noise.pt (torch, 7447 bytes, 6 tensors)

fc1.weight f4 [32, 7]
000000 f1 4c 39 bb f5 5a 89 be ec bf a2 be fc f3 d3 3e
       -0.002827462 -0.26827207 -0.3178705 0.41397083
000010 de 6b 9a be 11 58 d4 bd 93 5f c7 3e cf 10 8a 3e
       -0.3016042 -0.1036836 0.38940105 0.2696595
000020 44 3f 9a be b1 64 2d 3e df 4a 0a be 98 4c 96 be
       -0.30126393 0.16932942 -0.13505124 -0.2935531
000030 12 50 9b be 8d 88 fe bd 1e b1 b6 bd 35 b2 1f bc
       -0.30334526 -0.12428389 -0.08920501 -0.009747078
000040 51 2a 04 3e aa f0 1f be c2 e5 f8 3e 95 f2 d9 3e
       0.12906767 -0.1561915 0.4861279 0.42567888
000050 85 08 8f be 10 9d c6 3c d8 65 c3 3e 36 ab 9c 3e
       -0.27936187 0.024244815 0.38163638 0.30599374
000060 86 d4 44 be 3d e0 33 be 79 5a 9b be fb 68 68 3b
       -0.19221696 -0.17566009 -0.30342463 0.0035462964
000070 f7 e1 13 3e 52 7f 8e be 25 1a 1a be f9 94 08 bf
       0.14441667 -0.27831513 -0.15049036 -0.53352314
000080 70 25 5b be b7 b6 93 be f9 84 34 3e e1 8e 0a be
       -0.21401 -0.28850338 0.1762885 -0.13531066
000090 72 77 bd 3e 0b 12 15 3e 8e 14 98 3e a7 9f 86 be
       0.37005192 0.14557664 0.29703182 -0.2629368
0000a0 76 87 59 3e 56 a2 c5 bb c3 06 ef bc ad 7d c2 3d
       0.2124308 -0.006031315 -0.029178029 0.09496627
0000b0 2d c8 03 be 6a b0 7d be c2 76 4a bd 9c a1 96 be
       -0.1286933 -0.24774328 -0.049429663 -0.29420173
0000c0 61 38 01 3e db 12 05 3e 07 67 4a 3d 13 97 74 3e
       0.12619163 0.12995474 0.04941466 0.23885755
0000d0 1d a1 c4 be d5 cc 52 3d 5f ff f9 be 5c d7 60 3e
       -0.3840417 0.051464874 -0.48827645 0.21957153
0000e0 2c f8 84 3e 07 d8 1e 3e af 76 92 be 65 76 16 3e
       0.2597059 0.15512095 -0.28606173 0.14693601
0000f0 ed 9f 44 be f7 df 05 be 8f d4 4e be 6a 13 10 be
       -0.19201632 -0.13073717 -0.20198272 -0.14069906
000100 a7 30 1e be 20 a7 c3 be 18 6c 94 3d 92 6b fb be
       -0.15448247 -0.38213444 0.0724718 -0.49105507
000110 a0 50 47 be 88 48 98 3e 71 48 89 be 3f 85 7a be
       -0.1946435 0.29742837 -0.2681308 -0.24464892
000120 72 54 84 bd 92 dc 99 be 1e fc a0 3e 34 ae b3 3e
       -0.06461419 -0.30051094 0.3144235 0.35093844
000130 57 86 1a be 1f 46 5b 3e 46 ae da 3d 9c b8 4e 3e
       -0.15090309 0.21413468 0.10677771 0.2018761
000140 5b 06 ca 3e 9c 57 46 3e 12 4e f8 3e 6f 04 a9 3d
       0.39457974 0.19369358 0.48497063 0.08252799
000150 ac b8 f9 3d c6 8d fb 3d 6b fc b2 be 50 c6 2b be
       0.121934265 0.122829005 -0.34958205 -0.16774869
000160 ef 0a 8a be c1 4b 9b 3e 76 46 c1 be 0f 9d 9e 3e
       -0.26961467 0.30331233 -0.3774907 0.309792
000170 f3 97 40 bd 5d 18 92 be 56 74 ec bd 4a e7 f0 3d
       -0.04701991 -0.28534213 -0.11545627 0.11762865
000180 bc bb c7 bd 32 4b 66 3d 37 9a 5a be c9 69 c8 3e
       -0.09752604 0.056224056 -0.21347891 0.39143208
000190 e3 0e a9 3e 8f c3 c5 3e f6 3f 10 3e cb 9c 5b 3d
       0.3301917 0.38625762 0.14086899 0.053616326
0001a0 dc bb fc bc b6 83 e5 3d af 5f a4 3d e9 fb 30 3e
       -0.030851297 0.112067625 0.08026063 0.17283596
0001b0 e7 58 9c bd 99 c3 71 3e 3d a5 a6 be fc 8a bf bd
       -0.07634144 0.23609771 -0.32547942 -0.09352681
0001c0 35 ec 0b be ad 02 9a bd 79 a3 12 3e f7 41 3c be
       -0.13664325 -0.075200416 0.14320172 -0.18384539
0001d0 28 b4 e4 3e 85 b8 18 be 71 dd e2 bc 69 99 b3 bc
       0.44668698 -0.14914139 -0.027693482 -0.021923738
0001e0 4b 3d 6e be 10 f4 bc 3e 2f 4e a1 be d4 09 36 3e
       -0.23265569 0.36904955 -0.31504962 0.17777187
0001f0 e6 bd 4d 3e cc 9b 97 bc 5f f4 b7 be 62 1f de bd
       0.20091972 -0.018506907 -0.35928628 -0.108458295
000200 24 80 1f be 61 10 9d bd 10 14 0e be 3e c8 70 bd
       -0.15576226 -0.0766914 -0.1387484 -0.058784716
000210 8d 7b 94 be d6 bb c9 bd 35 29 80 3e 57 e8 23 bd
       -0.29000512 -0.0985028 0.25031438 -0.0400165
000220 db 1b 90 be bc 2c 9e be 80 c5 e4 3d eb dc 89 be
       -0.28146252 -0.30893505 0.11170483 -0.2692636
000230 0b 02 dc bd 0b a6 82 3e 22 9c ac be 33 48 16 be
       -0.10742577 0.25517306 -0.3371287 -0.1467598
000240 d2 af a7 be 14 72 eb be c7 dd 36 3d e3 7f aa 3d
       -0.32751328 -0.45985472 0.044645097 0.08325174
000250 0c 69 a2 be 45 c0 2d 3e d6 0c c1 3e 3a aa 94 be
       -0.3172077 0.16967876 0.37705106 -0.29036123
000260 56 97 77 3e fe e4 02 3e af 43 c7 3e 7e 63 b8 bc
       0.24178824 0.12782666 0.38918826 -0.02250838
000270 79 7d ce bd ad 35 e2 3e ef 06 e6 3e 1f 30 4b be
       -0.10082526 0.44181576 0.44927165 -0.19842575
000280 22 ca 90 3e 42 e8 1c be 09 d5 10 3e d9 da aa bb
       0.28279215 -0.15322974 0.14143766 -0.005214077
000290 48 55 33 3e 59 04 67 be e2 b5 62 be 8a 81 51 3e
       0.17513001 -0.22560252 -0.22139695 0.20459571
0002a0 07 b3 d1 3e f1 a5 8e 3e 87 96 8e be 46 60 07 be
       0.409569 0.27860978 -0.27849218 -0.13220319
0002b0 4f 68 d0 3c d4 a9 81 3e b6 d3 6e 3e d7 55 01 3e
       0.025440363 0.2532488 0.23322949 0.12630402
0002c0 58 7f a0 3e 2f db 91 3e ad ff 4c be ca 42 39 3d
       0.31347156 0.28487536 -0.20019408 0.04522971
0002d0 e4 12 c4 3d 00 0f 8d 3e dc 3b d3 be bf 7c e6 bd
       0.095739156 0.27550507 -0.41256607 -0.11254262
0002e0 5b 79 76 be 3c 5e 84 3e 20 35 87 3e ed 10 81 bd
       -0.24069731 0.25853145 0.2640772 -0.063020565
0002f0 05 e1 bd 3e 28 c6 b4 be 69 3b 2c be 4c d7 64 bd
       0.3708574 -0.3530743 -0.16819538 -0.055869386
000300 79 d6 72 be 1a 39 25 3d ed 44 ab 3e 89 6d a0 be
       -0.23714627 0.04033766 0.33451024 -0.3133357
000310 b8 18 74 be bb bb af 3e 1e c9 9a be b4 b0 95 be
       -0.23837554 0.34322914 -0.30231565 -0.29236376
000320 80 60 e8 bd 10 a2 70 3b 7d 7a e0 bd 43 89 7c bc
       -0.11346531 0.003671769 -0.10960863 -0.015413585
000330 f4 e5 b9 3e ec 31 95 3e f1 f7 24 be 08 d4 c4 3e
       0.36308253 0.2913965 -0.16110207 0.38443017
000340 2f 1f 22 ba 99 51 81 3e 87 78 24 3e c1 87 bf ba
       -0.0006184456 0.25257567 0.16061603 -0.0014612601
000350 8a e7 4c 3e 9a 2d db 3e 40 39 27 3d 86 d3 f1 be
       0.200102 0.4280823 0.040826082 -0.47231692
000360 ee 00 d7 3d 07 7f 89 3d 70 23 2f bc 67 f2 30 3d
       0.10498224 0.06713682 -0.010689601 0.043199923
000370 90 d3 b4 3e f4 4a ad 3e f0 e3 3f be b0 68 a6 3e
       0.3531766 0.33846247 -0.18739295 0.32501745

fc1.bias f4 [32]
000000 19 0d 80 bd 21 48 d5 bd 86 50 93 3e 5f 46 b2 be
       -0.06252498 -0.10414148 0.28772372 -0.34819314
000010 9f e2 e6 3c a3 e3 d4 3d 84 13 6b 3e 00 e0 97 be
       0.028184233 0.10394981 0.22956663 -0.29663086
000020 a6 e9 9b be c3 b0 03 3e 45 83 47 be 4f a5 98 3c
       -0.30451697 0.12860398 -0.19483669 0.018633513
000030 f3 24 a9 be 41 89 9d 3e 87 5c 92 be 74 38 c0 be
       -0.33036003 0.3076878 -0.28586218 -0.3754307
000040 13 94 96 3e 9f 35 c9 be af 2a 1a be eb 15 80 be
       0.29409847 -0.39298722 -0.15055345 -0.25016722
000050 9b e7 04 3e 79 24 99 be b8 4d 0f 3d 13 04 3c 3e
       0.12978975 -0.2991064 0.034986228 0.18360929
000060 a3 2c ce bd 61 35 17 3d 82 67 f3 bc f1 ab 0b be
       -0.100671075 0.03691614 -0.029712442 -0.13639809
000070 16 fb ac 3e 17 e8 9d bd 01 ec df bc 5b 1f 16 3e
       0.33785313 -0.07710283 -0.027334215 0.14660399

fc2.weight f4 [32, 32]
000000 fa 8f 30 3e fe 3b 32 3e 4b ce 0a 3e c4 f1 ac 3d
       0.17242423 0.17405698 0.13555257 0.08444551
000010 e7 56 90 bd ed 49 f2 3d bb e7 f0 bb 7c 6c fd 3d
       -0.07047825 0.118305065 -0.007351843 0.123742074
000020 4e 00 d3 bd 0b 42 11 be ff b0 1f be 6a 16 85 3d
       -0.103027925 -0.1418535 -0.15594862 0.06498416
000030 63 8c b0 3d 27 e6 1c 3e b8 37 a4 3d 05 da 09 bc
       0.08620527 0.15322171 0.0801844 -0.008413796
000040 6c 37 d8 3d be 7d cc 3d 0e 2b 61 3d ca f1 05 be
       0.10557446 0.09984921 0.0549727 -0.13080516
000050 0e 87 16 be 29 0f 17 bd 6a b5 1b be d1 3c 1b 3d
       -0.14699957 -0.036879692 -0.15205923 0.037899796
000060 53 8c 87 bd 5e e4 b0 bd 74 2a f1 bd ae 32 22 3e
       -0.066185616 -0.086373076 -0.117756754 0.15839645
000070 40 be 14 be c5 a6 8a 3c 81 28 10 be 02 4e c9 3d
       -0.145257 0.016925225 -0.14077951 0.09829332
000080 e6 66 86 3b fb 2c 67 bd 54 24 04 3e 85 58 1e 3e
       0.004101622 -0.05643938 0.12904483 0.15463455
000090 d9 48 f1 bd 89 7b a9 3d 1f b6 b7 3d c6 22 9e 3a
       -0.11781473 0.082755156 0.08970284 0.0012064807
0000a0 5c fb cf bd 5f be 38 be 7b f4 15 3e f7 ae d5 3d
       -0.10155365 -0.18041371 0.14644043 0.104337625
0000b0 1c 75 60 bd 37 90 1a 3e 2f c7 0f be 1c 78 a2 bc
       -0.054799184 0.15094076 -0.14040826 -0.019832663
0000c0 12 8f a6 3c 27 7f 05 be 84 a3 16 3e 81 20 0b be
       0.020331893 -0.13036786 0.14710814 -0.13586618
0000d0 03 66 47 3e 2a 92 0a be 12 20 fe bc 77 81 b0 3d
       0.19472508 -0.1353232 -0.031021152 0.086184435
0000e0 99 04 e3 bd 6a 18 d0 ba 49 35 2f be 9e 48 f9 bb
       -0.11084861 -0.0015876417 -0.1711017 -0.0076075336
0000f0 52 f8 4c 3d 8c e4 11 bd 9a fa 04 be 5b 2a d2 3d
       0.050041504 -0.03561835 -0.12986222 0.10261985
000100 cc 1e d9 3d af 12 10 3b c3 13 b5 3d d9 1f 29 3e
       0.10601577 0.0021983793 0.0884166 0.16516055
000110 11 19 31 3d 9e ce a9 bd 6b b0 bd bd 50 ba ff bd
       0.043236796 -0.08291362 -0.09262165 -0.12486708
000120 46 44 f7 3d 0f a7 4b bd 3a ce f3 bd df 49 38 3e
       0.12073569 -0.049719866 -0.11904569 0.1799693
000130 94 27 2c be 39 d5 0b 3d b0 e6 d7 bb d4 7b 2c be
       -0.16811973 0.03413889 -0.0065887794 -0.16844112
000140 fc bc 90 3e 35 46 93 3d 7f d8 b3 3d 64 e2 24 3e
       0.28269184 0.07191125 0.08781528 0.16101986
000150 3e c6 ef bd 6f c1 a3 3d e0 5a 01 be ce b5 15 be
       -0.117077336 0.07995879 -0.12632322 -0.14620134
000160 13 ea 54 be 00 6b 18 3d 6e c8 b2 bd ba d1 a8 3d
       -0.20792417 0.03721142 -0.08729635 0.08243127
000170 da c7 d5 3d f1 8e 1a 3e 44 db 6e be 3e 5c af bd
       0.10438509 0.1509359 -0.2332583 -0.08562516
000180 0f 0a 00 bc 9b 31 23 3c d8 0c 62 bd b0 88 95 bd
       -0.007814898 0.009960557 -0.05518803 -0.07301462
000190 d1 5d 03 3e 07 92 d5 bd 7f a8 ce 3d 4b 52 b2 3d
       0.12828757 -0.10428243 0.10090732 0.087071024
0001a0 05 f5 2f bd 74 ce c8 3d 01 c0 86 bb 88 c0 c7 bd
       -0.04295828 0.09805003 -0.004112244 -0.09753519
0001b0 6e 5c 05 be 3f b6 ad bc fa 6e 8a 3d 3f f1 04 3e
       -0.1302354 -0.021205066 0.06759448 0.12982653
0001c0 5e 4e a6 3d 6d 21 14 3e 92 14 9a 3d 80 0e 8e bc
       0.08120416 0.14465876 0.07523455 -0.017340899
0001d0 e7 e4 a1 bd 97 ba 86 bd 21 6f 12 be 35 f6 e8 3d
       -0.07904988 -0.06578558 -0.14300205 0.11375085
0001e0 b1 54 ac bd ac 85 c3 3d 4f 34 9e bd ff 0a 7e bd
       -0.08414591 0.0954698 -0.07724821 -0.062022205
0001f0 1a 83 ff bc fe a0 34 3e 73 c8 b9 bd 66 50 80 3d
       -0.031190444 0.17639539 -0.09071436 0.06265335
000200 49 d7 b9 bc 4e 03 48 3d 12 45 13 be ce aa 2c 3c
       -0.022685664 0.048831277 -0.14381817 0.01053877
000210 a2 9a 18 be 31 be 15 3e ea de 84 3c a2 17 ad 3d
       -0.14902738 0.14623334 0.016219575 0.08451773
000220 dd 66 18 be 51 1b 10 be bb 3f 83 bd 50 8d d9 bd
       -0.14882989 -0.1407292 -0.0640864 -0.10622656
000230 87 ce 6e bd 92 12 f4 bd 54 c6 1c 3e 51 9d 27 3d
       -0.05830243 -0.119176045 0.15310031 0.040921513
000240 d2 3e d7 bd 0b 76 26 3e 84 5d 67 3d ca dd 2a be
       -0.10510029 0.16255967 0.056485668 -0.16686168
000250 e5 2a 04 bd e1 f8 0b be df 35 b7 3d c2 be 17 be
       -0.03226747 -0.13669159 0.08945822 -0.14818862
000260 3d 5b 1c 3e 90 f5 5c bb 06 16 88 3d fd 71 02 3e
       0.1526918 -0.0033715703 0.06644826 0.12738796
000270 8f a3 bb 3d ce f2 15 bc bd 50 f4 3d 96 16 2f be
       0.09162056 -0.009152127 0.11929462 -0.1709846
000280 e8 b4 4d bd 8f 1e 94 bd a4 26 76 3c 25 22 0f be
       -0.050221354 -0.07232391 0.015023861 -0.13977869
000290 38 7f 23 bd 76 64 f8 3d 83 5d bd 3d 80 a8 5d 3e
       -0.039916247 0.121285364 0.092463516 0.21646309
0002a0 68 b4 00 3e 6a 39 10 3b a3 98 09 3e a0 9f 90 3d
       0.1256882 0.0022006878 0.13437133 0.07061696
0002b0 b0 85 e5 bd da 2d 1e 3e 4d ae 03 3e e1 03 ce bd
       -0.112071395 0.15447178 0.12859459 -0.100593336
0002c0 77 45 04 be e7 03 15 3e 0c bf ad 3c 51 5d 0a be
       -0.12917124 0.1455227 0.021209262 -0.1351216
0002d0 97 c0 67 be e3 b1 0f 3e c0 55 84 3d ab 03 31 3e
       -0.22632061 0.14032702 0.06461668 0.17286555
0002e0 ac 13 73 3d 78 c6 15 be ce ec 12 bd 22 20 63 bd
       0.059344932 -0.14626491 -0.035870366 -0.055450566
0002f0 a1 59 93 3c fa 41 b5 3d 41 3c 0e be ec ed 7a 3e
       0.017987074 0.08850475 -0.13890173 0.24504822
000300 d2 66 42 3e ee fa d8 3d 86 7d 4a be 31 07 a9 3d
       0.18984535 0.10594736 -0.19774446 0.08253325
000310 7c 20 f9 bd 09 4e 91 3e 92 dd ba bd f0 0c 08 3e
       -0.12164399 0.2837985 -0.091242924 0.13286185
000320 37 c3 be bd 23 4b 4e bd a4 09 26 3e e9 4f 94 be
       -0.09314578 -0.050364625 0.16214615 -0.28967217
000330 34 94 1b be 62 18 91 bd 8a cd 4e 3e 43 12 8d bd
       -0.15193254 -0.07084729 0.20195594 -0.06888249
000340 cf 99 36 bd 26 e0 77 3c da 5e 89 3c 82 15 9a 3d
       -0.044580277 0.015129125 0.016768862 0.075236335
000350 e8 04 f5 bd 50 c3 04 3e ba d0 22 3e a0 44 eb ba
       -0.119638264 0.12965131 0.15899935 -0.0017949529
000360 18 cf 86 bb 80 0f 01 be 2d 71 46 3e 49 83 15 bd
       -0.004114043 -0.12603569 0.1937911 -0.036502156
000370 77 96 84 3d 3b da b7 3d ab 27 87 3e 43 6a 2a 3e
       0.064740114 0.08977171 0.26397452 0.16642098
000380 68 4d 46 3c 22 bd 1a 3e 01 f9 2a be f3 1f 57 bd
       0.012103416 0.15111211 -0.1669655 -0.052520704
000390 e6 31 29 be a5 07 31 3d 97 87 1d 3e d2 4d cd 3d
       -0.16522941 0.04322018 0.15383755 0.10024609
0003a0 ae a4 20 be 9f 48 cc bd 65 41 2f be 95 f0 e1 3c
       -0.1568782 -0.09974789 -0.1711479 0.027580539
0003b0 24 c7 a6 bd 99 61 11 3e c0 ca 1d 3e 6f 3f 07 be
       -0.08143452 0.14197387 0.15409374 -0.13207792
0003c0 19 01 e0 3d e9 a6 44 3c a8 76 f1 3d c2 e1 69 3d
       0.10937709 0.012002685 0.1179021 0.057100065
0003d0 8d 05 9b bd 2d 32 c9 3d 2c 01 d0 3d 23 8e ee bd
       -0.07569418 0.098240234 0.101564735 -0.11648204
0003e0 fd 52 fc bd 78 40 e3 bd 2c 7e 7d bd 1f d8 9e bb
       -0.12320516 -0.11096281 -0.061887905 -0.004847541
0003f0 17 9a d1 bd 43 b0 a5 bd 75 e1 2a be 01 5c 9d 3d
       -0.102344684 -0.0809026 -0.16687568 0.07683564

fc2.bias f4 [32]
000000 07 6e 2b be ee b6 95 3d 66 4b 90 3d d9 c3 5b bd
       -0.16741191 0.07310282 0.07045631 -0.05365357
000010 b8 e6 0a 3e 12 16 05 3d 6c c8 1a 3e 7e d5 2e be
       0.13564575 0.03249175 0.15115517 -0.17073628
000020 43 66 2b be 79 8b e9 3d e0 41 45 3e eb a1 c1 3d
       -0.16738228 0.114035554 0.1926341 0.094547115
000030 05 93 f7 3d 12 7c 37 3d a4 d0 0f be fb 88 f7 bd
       0.120885886 0.044796057 -0.14044434 -0.12086674
000040 57 4d 52 3e 36 5a 20 be 44 e4 f4 3d d2 7c c3 bd
       0.20537315 -0.15659413 0.11957601 -0.09545292
000050 d5 9b 07 3e 7b e0 70 3d bf 71 21 3d 73 80 9a 3d
       0.13243039 0.05880783 0.039415117 0.07544031
000060 2c e8 0a 3d cf d4 1e 3b 1c 2e fb 3c 40 cc 34 bd
       0.033912823 0.002423573 0.030661635 -0.0441401
000070 de 5a 8c 3d d1 df f7 bd 7a cf 09 be 8a 89 7b 3d
       0.06853269 -0.121032365 -0.13458052 0.061410464

out.weight f4 [3, 32]
000000 fc e6 2e 3e c0 ce 46 3e 2b 60 a0 3e ad d1 49 3e
       0.17080301 0.19414806 0.3132337 0.19708891
000010 7a 22 32 bc 3c 21 6b be 06 a1 0a bf e7 a4 99 bd
       -0.010872478 -0.22961897 -0.5415195 -0.07502156
000020 9d 38 93 bb 81 99 13 3e 4e e4 97 3e fd b2 36 3e
       -0.004492833 0.14414026 0.2966637 0.17841716
000030 1a 86 97 be 92 d6 71 be 0e 56 1b 3e f6 11 0f bd
       -0.295945 -0.23617008 0.15169546 -0.03492924
000040 c5 8b 29 3e 9c c5 0c bc 33 a2 9d 3e b4 30 0f be
       0.16557224 -0.008592036 0.3078781 -0.13983423
000050 73 bb 87 3e 52 e8 9e bd 2f ef 02 be 77 5f 46 be
       0.265102 -0.07759155 -0.12786554 -0.19372354
000060 12 2a 5d 3e 8e 68 81 3e 8a 7c 4a bd df c3 c3 bd
       0.2159808 0.2527508 -0.049435176 -0.09558844
000070 ca 54 ff 3d 2c 2e 21 be 93 4c 72 3d b6 5f c6 3c
       0.12467344 -0.1574027 0.059155058 0.02421556
000080 c9 86 e0 bd 4a a5 95 bc 25 f9 80 3e 7c 6e a3 bd
       -0.10963208 -0.018267293 0.25190082 -0.079800576
000090 a0 38 60 3d 5c b4 44 be b4 07 5f 3d 91 c1 cf 3c
       0.0547415 -0.19209427 0.054450706 0.025360854
0000a0 f3 da 48 3c dc 6b 98 3e 51 1b 5d be af 3f a2 be
       0.012259233 0.2976979 -0.21592452 -0.31689212
0000b0 8b 2a d4 3e 56 69 83 be 81 15 6f bd da db fe 3d
       0.41438708 -0.25666302 -0.058370117 0.12444277
0000c0 e5 c4 ea 3e c2 a2 2f 3e 97 17 fb bd 7a ff 0d 3c
       0.45853344 0.17151931 -0.12260359 0.008666867
0000d0 56 2e df 3e 65 00 03 be 50 ae 0d bf ff cc 8c 3e
       0.4359004 -0.12793119 -0.55344105 0.2750015
0000e0 ea 79 f8 bd 2c 32 67 be 10 62 a8 be 48 13 28 3e
       -0.12132628 -0.22577733 -0.32887316 0.16413605
0000f0 12 7c 4a 3e 6b c1 25 be d7 09 d3 3d 32 da 70 be
       0.19773892 -0.16187064 0.10304611 -0.23520735
000100 84 ea f0 3d 86 07 b6 bc 48 c7 ee 3d 47 23 10 3d
       0.1176348 -0.022220384 0.11659104 0.035189893
000110 e5 41 f3 bd 78 1f 38 bd e1 17 a1 bd b3 a4 f2 3d
       -0.11877803 -0.044951886 -0.07865883 0.1184782
000120 a6 4f d0 bc 2e 2f e3 bb 66 d4 ad bd b3 70 e0 bd
       -0.025428604 -0.0069331145 -0.084877774 -0.10958996
000130 54 0c 56 3c 2d 57 e6 3b b6 81 16 3e bc a1 f6 bd
       0.013064463 0.007029435 0.14697918 -0.12042567
000140 0c 33 43 bc 9d f3 9b bd 9d 4d b4 bd c0 8f e8 3d
       -0.011914026 -0.07614825 -0.08803866 0.11355543
000150 22 5c 9c bc 39 69 8f bd 3b c6 9b 3c f2 0e 26 3d
       -0.019086901 -0.070024915 0.019015422 0.040541597
000160 4c 67 42 3d a6 e0 dc bc 17 08 f6 3d b0 6b fd bd
       0.047461793 -0.02696259 0.12013262 -0.123740554
000170 31 45 70 3d 97 28 b1 bd 95 54 a3 3d 3e c7 ae 3d
       0.058659736 -0.0865032 0.07975117 0.08534096

out.bias f4 [3]
000000 a2 c6 99 bd 9b 64 28 3e 78 d2 d3 3c
       -0.07508589 0.16444628 0.025857195
