noise-analysis/mlp_model/models/data_x.pt (torch, 7447 bytes, 6 tensors)

fc1.weight f4 [32, 7]
00000000: 0e35 9f3b d98e 673b 56b1 b73d a672 8c3f
00000010: f398 edbd 63be 253e 8cb4 04bd b695 623e
00000020: bac9 80be 60dd 51bc 57c2 47bc e8ac 55bc
00000030: b649 84be 527e 5bbc e097 8d3e 4c19 9a3e
00000040: 039a 90be d196 b0bc cd8c 183c 9774 573d
00000050: 62f2 1ebb b4ce 7e3e c9a1 bdbe f0a8 c43d
00000060: 0a4b e83b a498 f5bd a2b1 7ebe 38f5 7ebd
00000070: 4b30 14bc 43da b4be b264 f2b9 c37c 31be
00000080: 0ef8 fdbd 4d51 823e 331e bebc 061d 7cbf
00000090: cb5f d33d 4425 53be bfec eb3b fcd5 b6be
000000a0: eea0 d43d bbfa 2f3e 7a38 023c b028 20be
000000b0: caff 473e 0161 123e 04d3 b53e 6fd8 893e
000000c0: 2105 2c3e 5822 f03e eaad 233e c266 6f3d
000000d0: 17ea 6dbe b8ee 4cbe 3c98 9cbd e081 a83e
000000e0: 99fc 96be e320 8b3d 83c9 83be 6354 e23e
000000f0: 6343 9bbe 03fd 36bd 39f0 2c3e 3636 31be
00000100: 4c31 8f3e 191c 0f3e 2650 183e 563a 60be
00000110: d17b 993e dfa4 98be c933 fcbe 4a15 3bbc
00000120: 831b 7bbe 5e0c 29bd 4621 d4bd 8aec a0be
00000130: 8c2f a43e d043 a63d ad96 8abe 1ddf de3d
00000140: 6801 443e 1479 553e 4a7d c13e dbfa a03e
00000150: 5761 8dbe 2697 8fbe e889 a33e f973 13bd
00000160: cdc0 b43e d70f 853e 1c36 74be b502 783d
00000170: 4099 07bd 60ff 62bd 6461 b4be c11e 15be
00000180: e888 38be 7b94 b7be 00cf 433e 3148 0e3d
00000190: e3a8 a03e 3e90 653e 3e23 b63e 16c1 b93e
000001a0: 41be dc3d 70e3 27be b6d1 4fbe d59d 953e
000001b0: 69af aebe 7311 7f3e 9b0f 9e3e 0e56 a5be
000001c0: 2859 29be ff3e 163e bc08 b2be 22a3 903e
000001d0: 876b 993e d8cf 1ebd 31cf 3d3e 5445 ac3f
000001e0: c599 83be 042a 8fbe 0238 d1bb 16f5 473e
000001f0: 0496 b43d 50d2 883e 7028 20bd e4d4 653e
00000200: 1cfe 9bbd b33e 63be 4f6c a93e 5adb 523e
00000210: aba7 263e 0261 f73a f965 9cbe 23af 69be
00000220: 161e 5cbf 5476 953e cc54 673c 81e6 b1be
00000230: 5b31 43be 5b07 b33e dfd2 863e ff62 44be
00000240: 8329 8bbe 8bb3 a7be ba6f ddbd 1e7c 813f
00000250: 270b ccbb 0a7f e83d cf51 e63b d86c dfbd
00000260: 98fb bc3e c39c b3bc f9fa 4abf f86b 80bd
00000270: ff4b 80be ec7f f23c 43f3 ba3e 63fa 89be
00000280: 1d39 c8bc 55c6 343f 8580 fc3d 51f8 60be
00000290: 28b3 82be d3bb b73e 00d4 073e 7911 783e
000002a0: 9354 9ebe bcd9 81be eb0f 8b3e e3e5 a33e
000002b0: c3f3 ae3e 90c0 6cbe 0a75 4fbe 029f 6e3e
000002c0: 972a 1bbe a958 b13e fece 1d3e 83c4 b9be
000002d0: c542 a73e 93c8 b4be 3ff4 aabe fad0 3abc
000002e0: 2f5b 343e 540e 873e de07 5cbe 6cae 6f3e
000002f0: ff94 8abe ed31 16bf 0be4 02be 7909 693e
00000300: 5f05 d4be 5f02 873e d629 643e ae38 923d
00000310: ec86 1bbf a9f5 c4bd 3922 4dbe 2c61 48be
00000320: baf2 a6be c239 3bbe ff4c 8b3e 5095 1c3e
00000330: 3e90 05be f1fc 11be 223d 223d 31f6 8a3e
00000340: 19d2 13be 6019 1cbd f6bc 5e3e cad6 5bbe
00000350: 1916 2abe 26ad b5be d92e 9f3e 5bce b03e
00000360: fa09 0cbd ed3c 9bbe 914d 41bc 5e9b 83be
00000370: 2a77 1d3e a46e b93e 7d7c a93e 2aa1 2dbe
0.0048586195 0.0035332947 0.08969371 1.0972488 -0.116014384 0.16185908 -0.032398745 0.22127423
-0.25153905 -0.012809128 -0.01219233 -0.013041712 -0.25837487 -0.013396816 0.27654934 0.30097425
-0.28242502 -0.02155629 0.009310913 0.052601423 -0.0024253358 0.24883538 -0.37037495 0.09602535
0.0070890235 -0.119920045 -0.24872449 -0.062245578 -0.009044717 -0.3532277 -0.0004623286 -0.17332749
-0.12400828 0.25452653 -0.02320776 -0.98481786 0.103210054 -0.20619684 0.007199853 -0.35710132
0.103822574 0.1718549 0.007948035 -0.15640521 0.1953117 0.14294817 0.35512555 0.26922938
0.16798832 0.46901202 0.15984312 0.058447607 -0.2323383 -0.20012939 -0.07646224 0.32911587
-0.29489592 0.06793382 -0.2573968 0.44205007 -0.3032485 -0.044674885 0.16888513 -0.17305836
0.27967298 0.13975562 0.14874324 -0.21897253 0.29977277 -0.29813287 -0.4925826 -0.01141865
-0.24522214 -0.04127156 -0.10357909 -0.31430465 0.32067525 0.08118403 -0.27068081 0.10882399
0.19141161 0.20846969 0.377909 0.31441388 -0.27613327 -0.28045005 0.31941152 -0.035999272
0.35303345 0.25988647 -0.23848766 0.060549457 -0.033105135 -0.055419326 -0.35230553 -0.14562513
-0.18020976 -0.3585547 0.19121933 0.034736816 0.3137885 0.22418305 0.35573763 0.36280125
0.107784756 -0.16395354 -0.20294842 0.2922198 -0.34118202 0.24909 0.3087128 -0.32292217
-0.16537917 0.14672469 -0.3477229 0.2824946 0.2996485 -0.038772434 0.18536068 1.3458657
-0.25703254 -0.27961743 -0.0063848505 0.19527087 0.08817676 0.26722956 -0.039101064 0.22444493
-0.07616827 -0.22191887 0.33090445 0.20591488 0.16274898 0.0018873515 -0.3054655 -0.22820716
-0.8598341 0.2919184 0.014119338 -0.34746173 -0.19061796 0.3496655 0.26332757 -0.19178389
-0.27180108 -0.32754168 -0.10812326 1.0116003 -0.0062269154 0.11352356 0.0070287953 -0.10909432
0.369107 -0.021925336 -0.79289204 -0.062705934 -0.2505798 0.029602014 0.3651372 -0.26948842
-0.024441296 0.7061513 0.12329201 -0.21969725 -0.2552731 0.35885486 0.13264465 0.24225415
-0.309239 -0.2536143 0.27160582 0.32011327 0.3417035 -0.23120332 -0.2025949 0.23302844
-0.15152965 0.34637955 0.15410993 -0.3628274 0.3266813 -0.35309276 -0.3338947 -0.011402363
0.17612909 0.2637812 -0.21487376 0.2340638 -0.270668 -0.5866993 -0.12782304 0.2275752
-0.41410348 0.26368997 0.22281584 0.07139717 -0.6075275 -0.096171685 -0.20032586 -0.19568318
-0.3260706 -0.18283752 0.2720718 0.15291333 -0.13043305 -0.14256646 0.039609082 0.27140954
-0.14435615 -0.038110137 0.2175177 -0.21468654 -0.16609992 -0.35483664 0.3109043 0.34532437
-0.034189202 -0.3031992 -0.011798278 -0.25704473 0.15377489 0.36217225 0.3310279 -0.1695601

fc1.bias f4 [32]
00000000: 2116 2e3d 1e8b 03be 2e34 8d3e 1ee1 89be
00000010: 8f7f 90be 02e4 fdbd 7873 4d3e 6362 f9bc
00000020: a883 7fbe db8b 92bd 7293 103e b947 8abd
00000030: 863d 24bb 9029 bdbd 5f1a 8a3e 3f7d 4e3d
00000040: 67c3 9e3d e136 4ebe 9dd1 bc3d e979 b63e
00000050: bd4a 593e 7343 98bc 21fb 943d 5fd3 923d
00000060: 40eb 58be 461c 8ebe 6a67 b6be 4b04 9a3e
00000070: 2918 f83c 9daf 173e d6ba 80be a724 f6bd
0.042501573 -0.12846038 0.27578872 -0.26929563 -0.2822232 -0.12397005 0.20063579 -0.030442422
-0.24952567 -0.071555816 0.14118746 -0.06751961 -0.0025061085 -0.09236443 0.26973245 0.050412413
0.07752114 -0.20138122 0.09219668 0.35639885 0.21219917 -0.01858685 0.072744615 0.07169222
-0.21183491 -0.27755946 -0.35625774 0.300814 0.030284958 0.14813085 -0.25142545 -0.1201871

fc2.weight f4 [32, 32]
00000000: 6518 213e 4571 99bc b836 eb3d edfe 153d
00000010: 5dfd 1ebe 2124 f5bd 7e3e 7bbd a191 c4bd
00000020: 27ce 7ebc 6d98 e1bd 157c febc 1016 183d
00000030: 71ee 32bd 347d dfbd 9660 01be 43fa f43d
00000040: db37 98bd dc9a 18be c86a 62bd 4773 dbbd
00000050: eeb9 0ebb abda bdbd 4c15 143e 2093 0b3e
00000060: 4fc9 0f3e f84b 20be 7ed6 603b 6327 20bd
00000070: 2a6e 10be 917e f1bd a170 293e 73fc 5dbd
00000080: 9fd3 c73e c6cd 07be b85e 06be 04e7 c13d
00000090: af44 0a3d a960 3d3e cbd3 f2bd de43 883b
000000a0: bb65 df3d 44ce 1dbe 10fa 17be 0b6b 04bc
000000b0: 9f23 82bd 7238 403d 3168 803d 9789 23be
000000c0: f42b 62bd 352d 01bf f05f 0c3e afa6 933e
000000d0: 90e7 ae3c fd28 7e3d a84b 5cbb 2948 9dbe
000000e0: 6748 a83d 5cfa 103e 8dec 843d de65 673e
000000f0: 2721 0d3e 09ef 23be 2657 83bc 959e 7ebd
00000100: 778a 233c f1a5 0cbe e7d0 85bd 755d 2d3e
00000110: c829 253d e266 0cbe 0e5b 053e 47a6 cfbd
00000120: 78bb f9bc 40a7 ffbd 71aa 92bc 3026 1e3e
00000130: f704 843c f7b0 82bd 2e92 05be 5e9b f8bd
00000140: cd8c c03d 6b8d 10bd 8ac7 41bd 3176 ed3c
00000150: 7afe 10be 9cd2 393d 0850 943d 6dfb 0dbe
00000160: 4e2c 78bc d703 11be f662 1bbe 9013 0fbe
00000170: beab 453c 0245 a23d b985 093e 7cb9 cebd
00000180: f460 903e f720 adbc 5c63 ac3c b177 9d3d
00000190: 9960 0d3d b65c d239 9bd8 1fbe ce40 cebd
000001a0: 70e9 963d b096 a53d 9912 233e a872 52be
000001b0: 5017 1c3c 6d33 623d a2a6 f7bc 125a c5bd
000001c0: a02b 07be 1161 16bf c336 94bd 2ef0 903e
000001d0: 1601 e7bd ab5f 4d3d 2ed3 733e 9a75 7fbc
000001e0: 2acc 053c 060a 2b3e de1d 583d 5497 e93d
000001f0: a819 563e 5cdd c1bc 763d 2f3d 05b7 123e
00000200: 82ae 3c3d 1efc 023e c44a 80bd af7c 843c
00000210: c3a0 923d 67d1 0f3e 750e 5a3c a4c7 4bbd
00000220: 7e3e 5f3c 6bd6 7f3d 862a 27be 12fa f0bd
00000230: 79a1 22bc e148 133e e4d7 88bd 9195 7a3d
00000240: 9151 fb3c 9b3f 263e 3d56 19be c5d8 2d3d
00000250: 435f 97bc 9644 293d 9cb0 0b3e 2df2 3fbc
00000260: 977a bcbd 6f65 fd3d 7c68 c6bd 1cce a2bb
00000270: 8a7b 07be 8578 e7bc f6a9 ae3d 2e97 95bd
00000280: 455d 813e 83e9 1cbe 0149 5fbd 3ad7 16be
00000290: 6ce3 d53d dcca 89be 641b 593c e0a1 f23d
000002a0: 1808 393d f540 7a3d 660f 40be 3d39 d43d
000002b0: 1f64 233e baf3 793d 2d78 d4bb 05eb 5ebd
000002c0: d19a 293d 77bf c4bd cee4 f93d c054 8a3e
000002d0: afee 303d e19e a0be 29c4 41be f940 2d3e
000002e0: 6313 1a3c 761c 25be bb84 1f3e 2079 dbbd
000002f0: 672f 47bd 2bca 673d a7e7 ddbd 5f62 a13d
00000300: 9da2 073e 13cf 993d e918 34be a030 653d
00000310: 9d14 03be 5639 0e3e fac7 ac3d 4671 c53c
00000320: c6bd 5a3d 8348 48bd bd72 7f3d b717 903c
00000330: 8df0 6b3d ac46 303e 1d2c e03c dc31 e9bd
00000340: 7f7a 0cbe 677e bfbe d440 253e 676e 473e
00000350: 090b 00be ea69 22be 8e84 0a3e 4767 4ebe
00000360: fb25 813d ec03 8dbb 77fd 153e 89f2 cd3d
00000370: 5f46 1b3e f298 6bbd 7cd3 f1bd 4da6 c2bd
00000380: 80f2 e23d fc43 273e 4c8b 2cbe 97e2 00be
00000390: a3c8 debd f6ad f8bc 06ae a9bd 3b11 003e
000003a0: adad debd c3b2 f73d 3b5a 563d 7256 e73d
000003b0: 885a b93d b765 e7bd b092 333d ed11 2fbd
000003c0: 5de4 c03d 9ca5 9bbc d801 a23d d1da f43c
000003d0: 9b77 19bd 2510 1dbe 8210 b4bd 1e27 07be
000003e0: ce52 abbd a075 d6bd bba5 06bd 4640 8f3d
000003f0: bf61 b2bd d99d 0dbe 9070 a03d fead 08be
0.15731962 -0.018730769 0.11485046 0.03662007 -0.15526338 -0.11969782 -0.061338894 -0.09598089
-0.01555208 -0.11015401 -0.031065026 0.037130415 -0.043684427 -0.109125525 -0.12634501 0.11961796
-0.074325286 -0.14902824 -0.055277616 -0.10715347 -0.0021778303 -0.09270223 0.14461249 0.13630342
0.14041637 -0.1565398 0.0034307535 -0.039100062 -0.14104524 -0.11791719 0.16546871 -0.054195832
0.39028642 -0.1326209 -0.1312207 0.09467891 0.033756908 0.18493904 -0.118568026 0.004158481
0.109080754 -0.15410715 -0.14841485 -0.008082162 -0.063544504 0.04692883 0.06269873 -0.15970455
-0.0552177 -0.50459605 0.13708472 0.28838107 0.021350652 0.06205081 -0.003361443 -0.30719116
0.08216935 0.14158005 0.06490431 0.22597453 0.13782178 -0.16009153 -0.016032767 -0.062162954
0.009981743 -0.13735177 -0.065339856 0.16930182 0.04032305 -0.13711122 0.13023016 -0.10139137
-0.0304849 -0.12483072 -0.017903538 0.15444255 0.016115649 -0.063814096 -0.13044044 -0.12139009
0.094018556 -0.035291117 -0.047309436 0.028987022 -0.14159575 0.04536687 0.07241827 -0.13865443
-0.015147282 -0.14161621 -0.1517447 -0.13972306 0.012064872 0.079233184 0.13429917 -0.10093972
0.2819897 -0.021133883 0.021043472 0.07688845 0.03451595 0.00040123396 -0.15609972 -0.10070954
0.073687434 0.08085382 0.15925063 -0.2055155 0.0095270425 0.055224825 -0.030230824 -0.0963632
-0.13200235 -0.5874186 -0.072370075 0.28308243 -0.11279504 0.050140064 0.23811027 -0.015592003
0.008166352 0.16703042 0.05276286 0.11405817 0.20908225 -0.023665123 0.042783223 0.14327629
0.04606486 0.12791488 -0.062642604 0.016172735 0.07159569 0.14044724 0.013309111 -0.04975094
0.013625739 0.062460344 -0.16324815 -0.11766447 -0.009926193 0.1438327 -0.06681803 0.061177794
0.030678542 0.16235201 -0.14974304 0.042443056 -0.018478042 0.041325174 0.1364159 -0.011715454
-0.0920307 0.123728625 -0.096878976 -0.004968418 -0.1323072 -0.02825571 0.08528511 -0.07304226
0.25266472 -0.15323453 -0.05451298 -0.1473054 0.10443768 -0.26912582 0.013251159 0.118472815
0.045173734 0.061097104 -0.18755874 0.1036248 0.15956162 0.06102345 -0.0064840526 -0.05442335
0.04140741 -0.096068315 0.12201844 0.27017784 0.043196376 -0.31371215 -0.18922485 0.16919316
0.009404036 -0.16124138 0.15577976 -0.10716462 -0.04862919 0.056589287 -0.108352 0.07880091
0.13245626 0.075101994 -0.17587627 0.055954576 -0.12800832 0.1388906 0.0843658 0.024101865
0.05340364 -0.048897278 0.062365282 0.017589433 0.057602454 0.17214459 0.027364785 -0.11386463
-0.13718604 -0.37401125 0.16138011 0.19475709 -0.1250421 -0.15860716 0.13527128 -0.20156585
0.06306072 -0.004303446 0.1464747 0.100560255 0.15163563 -0.057518907 -0.118079156 -0.095043756
0.110814095 0.16334528 -0.16850013 -0.12586437 -0.10878112 -0.030356389 -0.082851455 0.12506573
-0.1087297 0.12094643 0.052332144 0.11295785 0.090504706 -0.112986974 0.043841064 -0.042741705
0.09418557 -0.018999867 0.07910508 0.029889496 -0.03746758 -0.1533819 -0.08792211 -0.13198516
-0.08365403 -0.10471654 -0.032872897 0.06994681 -0.0871005 -0.13829745 0.078339696 -0.13347623

fc2.bias f4 [32]
00000000: 6158 ae3c 85b9 193d 90f2 0abd 01b8 023d
00000010: cad7 b3bd 43e2 a1bd 79ac a6bc 034b d2bd
00000020: dc8d babd adbb ac3c a48b 8cbc 2abb 913d
00000030: 2b9b 473d 959e 19bd cf71 d43c e007 663d
00000040: c73c fa38 fa9f f73d b437 e0bd 33ef e13d
00000050: eb59 05bd e72a adbd 0ce2 abbd d679 05be
00000060: 70aa 1fbe ba6d a73d a244 4a3d 8896 0ebe
00000070: 45ac 10be 0a4f 013e ea22 4cbc 9c42 10be
0.021282377 0.03753044 -0.033922732 0.03191376 -0.08781393 -0.07904484 -0.020345913 -0.102682136
-0.09109089 0.021085585 -0.01715643 0.07115777 0.048731964 -0.03750475 0.025933174 0.056159854
0.000119322496 0.1209106 -0.109481245 0.11031952 -0.032556456 -0.084554486 -0.083927244 -0.13034758
-0.1559236 0.081752256 0.04938186 -0.1392461 -0.14128216 0.12627807 -0.012459496 -0.1408791

out.weight f4 [3, 32]
00000000: 2f77 2abe d150 40bf 958b 10bd a473 3abf
00000010: a5a8 0cbe eb2e 113f c3cf fdbe 704b 1c3e
00000020: 713d 793f a368 923e 0f8a a23e 4570 843f
00000030: bcaa 8cbd e37a 0abc 30a9 5cbe 8314 813c
00000040: 1efc b9bd 8ff9 48be a574 e8bd 8363 513e
00000050: 7edf 8c3f 6bf0 f2be fdc8 71bf efb7 0b3b
00000060: a82e 7d3d b5dd 133e ce35 3ebe 1469 4d3d
00000070: 6650 5d3c e86c 55be 833f af3d ccc3 d0bd
00000080: 3cc6 3fbd 3f80 053d 4f6b 08be 253c 32be
00000090: d6d8 033d 904c 553d 39cd f3bd 2f90 133e
000000a0: 10e2 ac3d 4f0a 42be ad04 ddbd 82d0 893e
000000b0: e215 1c3e f415 91bd 1b75 b63d 0df0 913d
000000c0: 8ace 713d 6bf9 0fbe 1546 b73b afc9 243e
000000d0: c644 bebd cc8d 8f3d eb06 b6bd 9faa ea3d
000000e0: 5c1a 2f3e d614 c83c ca4f 43be 88f1 ecbd
000000f0: 5ba3 d8bc aa49 2fbd f0e7 7bbe 50fc 38b9
00000100: ee99 683d c81b f5bc 009e 0a3e 645c 8d3d
00000110: f2cc 0c3d 5c87 ea3d 131c 99bd 7708 90bd
00000120: 7c93 87bc 19ed be3d bfb8 7ebd f4a7 063c
00000130: 44d8 183e 1c99 f43d fad2 82bd c736 0e3e
00000140: 0b11 dbbd 1c82 0a3e b0b8 f1bc ea88 373e
00000150: 5fbf 45bd 1ed6 1abd 3943 633d 6c76 2dbe
00000160: a444 1a3c b7a1 e8bb 2b6a f4bd 739c f0bd
00000170: 8c4b 163e bd53 0c3e 48f8 80bd 9366 ec3d
-0.16647027 -0.75123316 -0.035289366 -0.72832704 -0.13736208 0.56712216 -0.49572572 0.15263152
0.9735938 0.28595456 0.31745955 1.0346762 -0.068685025 -0.00845215 -0.21548915 0.015756851
-0.09081291 -0.19626449 -0.11350373 0.20448117 1.1005704 -0.4744905 -0.9444731 0.002131935
0.061812073 0.14440043 -0.18575212 0.05014904 0.013507938 -0.20842326 0.08557036 -0.10193595
-0.04681991 0.032593008 -0.13322185 -0.17405756 0.032189213 0.05207497 -0.119043775 0.1441047
0.084415555 -0.18949245 -0.107919075 0.2691689 0.15242723 -0.07084265 0.08909055 0.07125864
0.05903486 -0.14059989 0.005593071 0.16092561 -0.09290461 0.070094675 -0.08888038 0.11458325
0.17099899 0.024423998 -0.19073406 -0.11569506 -0.026445081 -0.04279486 -0.24600196 -0.00017641601
0.056787424 -0.029920474 0.13536835 0.06902388 0.03437514 0.11451599 -0.07476058 -0.070328645
-0.016549818 0.093225665 -0.062187906 0.008218754 0.14926249 0.11943266 -0.06387897 0.13888083
-0.1069661 0.13526195 -0.029507011 0.17923322 -0.04827821 -0.037801854 0.05548403 -0.16939706
0.009415779 -0.007099356 -0.119343124 -0.1174859 0.14677256 0.13703819 -0.06297356 0.11543002

out.bias f4 [3]
00000000: a83a 6ebd e463 4d3d adab 1fbd
-0.058161408 0.05014409 -0.038982082
